…
estination longitude')
Action Space:
 ('U', 'D', 'R', 'L')
----------------------------------
Neural Network Created!!!
----------------------------------
Model: "sequential"
_________________________________________________________________
_________________________________________________________________
 Layer (type)                Output Shape              Param #   
 Layer (type)                Output Shape              Param #   
=================================================================
=================================================================
 dense (Dense)               (None, 32)                928       
 dense (Dense)               (None, 32)                928       
                                                                 
                                                                 
 dense_1 (Dense)             (None, 32)                1056      
 dense_1 (Dense)             (None, 32)                1056      
                                                                 
                                                                 
 dense_2 (Dense)             (None, 4)                 132       
 dense_2 (Dense)             (None, 4)                 132       
                                                                 
                                                                 
=================================================================
=================================================================
Total params: 2,116
Total params: 2,116
Trainable params: 2,116
Trainable params: 2,116
Non-trainable params: 0
Non-trainable params: 0
…
